practical_archive_ws2026/pinet5_steps_viz.pt (torch, 31697 bytes, 20 tensors)

trajectory f8 [101, 1, 2]
0	0x0000000000000000	0.0
1	0x0000000000000000	0.0
2	0x3fb62fc962fc9641	0.0866666666666669
3	0x3fd0a3d70a3d70a7	0.2600000000000002
4	0x3fcbf487fcb923ab	0.21840000000000023
5	0x3fe4f765fd8adabc	0.6552000000000002
6	0x3fd5cb10ab78a754	0.3405191111111112
7	0x3ff0584c809a7d7e	1.0215573333333334
8	0x3fdb92de815eb586	0.4308391822222223
9	0x3ff376613e97a3af	1.2164013333333334
10	0x3fdf253516c297ba	0.4866459581629631
11	0x3ff39b9868154a85	1.225487143111111
12	0x3fe076d8d2de8a7c	0.5145076864758518
13	0x3ff222b7bdee78f5	1.1334760112000002
14	0x3fe0c1b60c3c3c15	0.5236463774652999
15	0x3ff086e4718eb4c9	1.0329327045285928
16	0x3fe0b766ab8f0006	0.5223878241304198
17	0x3fef2f0329a3a758	0.974488812758163
18	0x3fe0897bb75f695e	0.516782625341232
19	0x3feed235e508f18b	0.9631604646051967
20	0x3fe0560e13505e10	0.5105047585702227
21	0x3fef53b1e3272caa	0.9789666592199826
22	0x3fe02bc2ddcb5b0c	0.5053419429703765
23	0x3feffa4af4d90369	0.9993033201391032
24	0x3fe00f10c522780b	0.50183905127392
25	0x3ff02deb5c88367f	1.0112107862982211
26	0x3fdffdc87fd0d115	0.4998646972847081
27	0x3ff033f93898d4fd	1.01268884762004
28	0x3fdfefe08d769588	0.49901593985335824
29	0x3ff020cbaf5a48ed	1.0080067491258504
30	0x3fdfed513dbbdf1d	0.49885970143030695
31	0x3ff009afe05855c9	1.0023649943808428
32	0x3fdff0631fc5e5da	0.4990470705302791
33	0x3feff68a54c66c8f	0.9988452583087496
34	0x3fdff545bbbd8390	0.49934523900997707
35	0x3fefef55ad53203c	0.9979656586883787
36	0x3fdff9dd7f2bbf9a	0.49962556284935433
37	0x3feff58b090f8a57	0.9987235238043678
38	0x3fdffd4afd78de9e	0.49983477357043593
39	0x3feffecbb372bcf5	0.9998529915664266
40	0x3fdfff6dece6b837	0.49996517310035266
41	0x3ff00256fcbd68b4	1.0005712387706298
42	0x3fe0004134668fb3	0.5000310920190628
43	0x3ff002e77b6ab5ca	1.000709039780633
44	0x3fe00070135ee9f8	0.5000534418425664
45	0x3ff001f32c64449f	1.000476048855752
46	0x3fe0006bb1ca378f	0.5000513527354417
47	0x3ff000a9d0db30fd	1.0001619490095088
48	0x3fe0005179eb7f6e	0.5000388509033493
49	0x3fefff9b82edffb5	0.9999520833225605
50	0x3fe0003370ea7568	0.500024529017236
51	0x3fefff1718491960	0.9998889421774884
52	0x3fe0001a7959afeb	0.5000126237987365
53	0x3fefff5fbb0ab384	0.9999235776100339
54	0x3fe0000963cf6ab3	0.5000044774454494
55	0x3fefffe2005fb914	0.9999856955817301
56	0x3fdfffff54efd8fa	0.4999998406850775
57	0x3ff0001de793e91e	1.0000285192496174
58	0x3fdffff6d24f33ed	0.4999978116800879
59	0x3ff000293eaf6bd9	1.0000393341676868
60	0x3fdffff5198ebb92	0.4999974011979528
61	0x3ff0001d6fd9cbef	1.0000280732317568
62	0x3fdffff6ca0e468a	0.4999978039933032
63	0x3ff0000b3fed8672	1.0000107285672155
64	0x3fdffff99dfc2d89	0.49999847820500826
65	0x3feffffc7ee3bbba	0.9999983290016339
66	0x3fdffffc5092acf6	0.4999991213650924
67	0x3feffff371e66e73	0.9999940132724546
68	0x3fdffffe58b347f3	0.49999960577144903
69	0x3feffff6856b0665	0.999995480138932
70	0x3fdfffff9fb6c20e	0.4999999103265801
71	0x3feffffd9c501b3a	0.9999988606440191
72	0x3fe0000023852c53	0.5000000661615424
73	0x3ff000017454ff28	1.0000013870448559
74	0x3fe0000040c63c5d	0.5000001206516448
75	0x3ff000024552815c	1.0000021655942737
76	0x3fe000003f34d5a6	0.5000001177310665
77	0x3ff00001b9027303	1.0000016428886631
78	0x3fe000003043feee	0.5000000899017019
79	0x3ff00000ba213e4f	1.0000006933877505
80	0x3fe000001ebc732d	0.500000057250508
81	0x3fefffffee4590da	0.9999999669785453
82	0x3fe000001000f8db	0.5000000298093953
83	0x3fefffff553239db	0.9999996818531217
84	0x3fe0000005d63912	0.5000000108719027
85	0x3fefffff72180304	0.9999997356790975
86	0x3fdffffffffcde12	0.4999999999886039
87	0x3fefffffd3b8bce7	0.9999999175251134
88	0x3fdffffffac952e3	0.4999999951444762
89	0x3ff00000117a7b4b	1.0000000651122771
90	0x3fdffffff9a5170b	0.49999999408133594
91	0x3ff000001fbfd2f7	1.000000118275407
92	0x3fdffffffa918bae	0.49999999494155645
93	0x3ff00000199f2ba1	1.000000095448492
94	0x3fdffffffc3429b3	0.4999999964644772
95	0x3ff000000bcc7bda	1.0000000439538241
96	0x3fdffffffdc9930e	0.4999999979393558
97	0x3ff0000000777f21	1.0000000017389044
98	0x3fdffffffefdc096	0.4999999990605003
99	0x3feffffff712b01a	0.999999983372166
100	0x3fdfffffffc12f9d	0.49999999977148396
101	0x3feffffff7ca1af4	0.9999999847067031
102	0x3fe0000000132fc5	0.5000000001396009
103	0x3feffffffcf90969	0.9999999943614003
104	0x3fe00000002564ee	0.500000000272079
105	0x3ff0000000c77d8e	1.000000002902968
106	0x3fe0000000251399	0.5000000002697674
107	0x3ff0000001b81607	1.0000000064040948
108	0x3fe00000001c949a	0.5000000002079503
109	0x3ff00000017a6c26	1.0000000055067715
110	0x3fe0000000125b55	0.500000000133563
111	0x3ff0000000bc77da	1.0000000027425728
112	0x3fe000000009aadc	0.5000000000703397
113	0x3ff0000000152cda	1.0000000003081397
114	0x3fe0000000039e8f	0.5000000000263344
115	0x3fefffffff8aefb1	0.9999999991482494
116	0x3fe0000000001c44	0.5000000000008034
117	0x3fefffffff87a38c	0.9999999991242574
118	0x3fdffffffffd0bb6	0.4999999999892525
119	0x3fefffffffcd0731	0.9999999996291306
120	0x3fdffffffffc4c26	0.4999999999865302
121	0x3ff0000000082dcd	1.0000000001190188
122	0x3fdffffffffccc6e	0.4999999999883532
123	0x3ff0000000179acc	1.0000000003434932
124	0x3fdffffffffdbe3b	0.4999999999917894
125	0x3ff000000015af46	1.0000000003155534
126	0x3fdffffffffeac1b	0.4999999999951698
127	0x3ff00000000b9aca	1.0000000001688698
128	0x3fdfffffffff62a1	0.4999999999977636
129	0x3ff0000000020793	1.0000000000295344
130	0x3fdfffffffffd760	0.4999999999994227
131	0x3feffffffffa274c	0.9999999999574611
132	0x3fe0000000000a43	0.5000000000002917
133	0x3feffffffff92d9c	0.9999999999503646
134	0x3fe0000000001591	0.500000000000613
135	0x3feffffffffcbdd0	0.999999999976291
136	0x3fe00000000015be	0.500000000000618
137	0x3ff00000000048cc	1.000000000004138
138	0x3fe00000000010ec	0.500000000000481
139	0x3ff00000000140bc	1.0000000000182316
140	0x3fe0000000000af7	0.5000000000003116
141	0x3ff0000000013bfc	1.0000000000179616
142	0x3fe00000000005d7	0.500000000000166
143	0x3ff000000000b4d7	1.0000000000102796
144	0x3fe000000000023e	0.5000000000000637
145	0x3ff0000000002996	1.0000000000023639
146	0x3fe0000000000022	0.5000000000000038
147	0x3fefffffffffb7bb	0.999999999997946
148	0x3fdffffffffffe56	0.49999999999997635
149	0x3fefffffffff9e0c	0.999999999997216
150	0x3fdffffffffffdd9	0.4999999999999694
151	0x3fefffffffffcbdb	0.999999999998518
152	0x3fdffffffffffe1f	0.4999999999999733
153	0x3ff0000000000187	1.0000000000000868
154	0x3fdffffffffffeaa	0.499999999999981
155	0x3ff00000000010d4	1.0000000000009566
156	0x3fdfffffffffff36	0.4999999999999888
157	0x3ff00000000011df	1.0000000000010159
158	0x3fdfffffffffffa2	0.4999999999999948
159	0x3ff0000000000ae7	1.0000000000006197
160	0x3fdfffffffffffe8	0.49999999999999867
161	0x3ff000000000030d	1.0000000000001734
162	0x3fe0000000000006	0.5000000000000007
163	0x3feffffffffffcaf	0.9999999999999057
164	0x3fe000000000000c	0.5000000000000013
165	0x3feffffffffffa93	0.9999999999998458
166	0x3fe000000000000d	0.5000000000000014
167	0x3feffffffffffcce	0.9999999999999092
168	0x3fe000000000000a	0.5000000000000011
169	0x3fefffffffffffe3	0.9999999999999968
170	0x3fe0000000000007	0.5000000000000008
171	0x3ff00000000000e0	1.0000000000000497
172	0x3fe0000000000004	0.5000000000000004
173	0x3ff0000000000102	1.0000000000000573
174	0x3fe0000000000001	0.5000000000000001
175	0x3ff00000000000a8	1.0000000000000373
176	0x3fe0000000000001	0.5000000000000001
177	0x3ff0000000000037	1.0000000000000122
178	0x3fe0000000000001	0.5000000000000001
179	0x3fefffffffffffde	0.9999999999999962
180	0x3fe0000000000001	0.5000000000000001
181	0x3fefffffffffffb7	0.9999999999999919
182	0x3fe0000000000001	0.5000000000000001
183	0x3fefffffffffffd1	0.9999999999999948
184	0x3fe0000000000001	0.5000000000000001
185	0x3feffffffffffffd	0.9999999999999997
186	0x3fe0000000000001	0.5000000000000001
187	0x3ff000000000000d	1.0000000000000029
188	0x3fe0000000000001	0.5000000000000001
189	0x3ff000000000000f	1.0000000000000033
190	0x3fe0000000000001	0.5000000000000001
191	0x3ff000000000000a	1.0000000000000022
192	0x3fe0000000000001	0.5000000000000001
193	0x3ff0000000000005	1.000000000000001
194	0x3fe0000000000001	0.5000000000000001
195	0x3ff0000000000000	1.0
196	0x3fe0000000000001	0.5000000000000001
197	0x3fefffffffffffff	0.9999999999999999
198	0x3fe0000000000001	0.5000000000000001
199	0x3ff0000000000000	1.0
200	0x3fe0000000000001	0.5000000000000001
201	0x3ff0000000000001	1.0000000000000002

unsafe_action f8 [1, 2]
0	0x3fe0000000000000	0.5
1	0x3ff8000000000000	1.5

safe_set_A f8 [1, 9, 2]
0	0x3ff0000000000000	1.0
1	0x0000000000000000	0.0
2	0x0000000000000000	0.0
3	0x3ff0000000000000	1.0
4	0xbff0000000000000	-1.0
5	0x8000000000000000	-0.0
6	0x8000000000000000	-0.0
7	0xbff0000000000000	-1.0
8	0xbff0000000000000	-1.0
9	0x8000000000000000	-0.0
10	0x8000000000000000	-0.0
11	0xbff0000000000000	-1.0
12	0x3ff0000000000000	1.0
13	0x0000000000000000	0.0
14	0x0000000000000000	0.0
15	0x3ff0000000000000	1.0
16	0x0000000000000000	0.0
17	0x0000000000000000	0.0

safe_set_b f8 [1, 9]
0	0x402d43f630107e59	14.632737638486264
1	0x4029595061c1b02d	12.674441389936044
2	0x3ff5e04e7f7c0d38	1.3672623615137365
3	0x400a9abe78f93f4c	3.325558610063956
4	0x3ff0000000000000	1.0
5	0x3ff0000000000000	1.0
6	0x3ff0000000000000	1.0
7	0x3ff0000000000000	1.0
8	0x7ff0000000000000	inf

trajectory f8 [202, 1, 2]
0	0x0000000000000000	0.0
1	0x0000000000000000	0.0
2	0x3fb62fc962fc9641	0.0866666666666669
3	0x3fd0a3d70a3d70a7	0.2600000000000002
4	0x3fcbf487fcb923ab	0.21840000000000023
5	0x3fe4f765fd8adabc	0.6552000000000002
6	0x3fd5cb10ab78a754	0.3405191111111112
7	0x3ff0584c809a7d7e	1.0215573333333334
8	0x3fdb92de815eb586	0.4308391822222223
9	0x3ff376613e97a3af	1.2164013333333334
10	0x3fdf253516c297ba	0.4866459581629631
11	0x3ff39b9868154a85	1.225487143111111
12	0x3fe076d8d2de8a7c	0.5145076864758518
13	0x3ff222b7bdee78f5	1.1334760112000002
14	0x3fe0c1b60c3c3c15	0.5236463774652999
15	0x3ff086e4718eb4c9	1.0329327045285928
16	0x3fe0b766ab8f0006	0.5223878241304198
17	0x3fef2f0329a3a758	0.974488812758163
18	0x3fe0897bb75f695e	0.516782625341232
19	0x3feed235e508f18b	0.9631604646051967
20	0x3fe0560e13505e10	0.5105047585702227
21	0x3fef53b1e3272caa	0.9789666592199826
22	0x3fe02bc2ddcb5b0c	0.5053419429703765
23	0x3feffa4af4d90369	0.9993033201391032
24	0x3fe00f10c522780b	0.50183905127392
25	0x3ff02deb5c88367f	1.0112107862982211
26	0x3fdffdc87fd0d115	0.4998646972847081
27	0x3ff033f93898d4fd	1.01268884762004
28	0x3fdfefe08d769588	0.49901593985335824
29	0x3ff020cbaf5a48ed	1.0080067491258504
30	0x3fdfed513dbbdf1d	0.49885970143030695
31	0x3ff009afe05855c9	1.0023649943808428
32	0x3fdff0631fc5e5da	0.4990470705302791
33	0x3feff68a54c66c8f	0.9988452583087496
34	0x3fdff545bbbd8390	0.49934523900997707
35	0x3fefef55ad53203c	0.9979656586883787
36	0x3fdff9dd7f2bbf9a	0.49962556284935433
37	0x3feff58b090f8a57	0.9987235238043678
38	0x3fdffd4afd78de9e	0.49983477357043593
39	0x3feffecbb372bcf5	0.9998529915664266
40	0x3fdfff6dece6b837	0.49996517310035266
41	0x3ff00256fcbd68b4	1.0005712387706298
42	0x3fe0004134668fb3	0.5000310920190628
43	0x3ff002e77b6ab5ca	1.000709039780633
44	0x3fe00070135ee9f8	0.5000534418425664
45	0x3ff001f32c64449f	1.000476048855752
46	0x3fe0006bb1ca378f	0.5000513527354417
47	0x3ff000a9d0db30fd	1.0001619490095088
48	0x3fe0005179eb7f6e	0.5000388509033493
49	0x3fefff9b82edffb5	0.9999520833225605
50	0x3fe0003370ea7568	0.500024529017236
51	0x3fefff1718491960	0.9998889421774884
52	0x3fe0001a7959afeb	0.5000126237987365
53	0x3fefff5fbb0ab384	0.9999235776100339
54	0x3fe0000963cf6ab3	0.5000044774454494
55	0x3fefffe2005fb914	0.9999856955817301
56	0x3fdfffff54efd8fa	0.4999998406850775
57	0x3ff0001de793e91e	1.0000285192496174
58	0x3fdffff6d24f33ed	0.4999978116800879
59	0x3ff000293eaf6bd9	1.0000393341676868
60	0x3fdffff5198ebb92	0.4999974011979528
61	0x3ff0001d6fd9cbef	1.0000280732317568
62	0x3fdffff6ca0e468a	0.4999978039933032
63	0x3ff0000b3fed8672	1.0000107285672155
64	0x3fdffff99dfc2d89	0.49999847820500826
65	0x3feffffc7ee3bbba	0.9999983290016339
66	0x3fdffffc5092acf6	0.4999991213650924
67	0x3feffff371e66e73	0.9999940132724546
68	0x3fdffffe58b347f3	0.49999960577144903
69	0x3feffff6856b0665	0.999995480138932
70	0x3fdfffff9fb6c20e	0.4999999103265801
71	0x3feffffd9c501b3a	0.9999988606440191
72	0x3fe0000023852c53	0.5000000661615424
73	0x3ff000017454ff28	1.0000013870448559
74	0x3fe0000040c63c5d	0.5000001206516448
75	0x3ff000024552815c	1.0000021655942737
76	0x3fe000003f34d5a6	0.5000001177310665
77	0x3ff00001b9027303	1.0000016428886631
78	0x3fe000003043feee	0.5000000899017019
79	0x3ff00000ba213e4f	1.0000006933877505
80	0x3fe000001ebc732d	0.500000057250508
81	0x3fefffffee4590da	0.9999999669785453
82	0x3fe000001000f8db	0.5000000298093953
83	0x3fefffff553239db	0.9999996818531217
84	0x3fe0000005d63912	0.5000000108719027
85	0x3fefffff72180304	0.9999997356790975
86	0x3fdffffffffcde12	0.4999999999886039
87	0x3fefffffd3b8bce7	0.9999999175251134
88	0x3fdffffffac952e3	0.4999999951444762
89	0x3ff00000117a7b4b	1.0000000651122771
90	0x3fdffffff9a5170b	0.49999999408133594
91	0x3ff000001fbfd2f7	1.000000118275407
92	0x3fdffffffa918bae	0.49999999494155645
93	0x3ff00000199f2ba1	1.000000095448492
94	0x3fdffffffc3429b3	0.4999999964644772
95	0x3ff000000bcc7bda	1.0000000439538241
96	0x3fdffffffdc9930e	0.4999999979393558
97	0x3ff0000000777f21	1.0000000017389044
98	0x3fdffffffefdc096	0.4999999990605003
99	0x3feffffff712b01a	0.999999983372166
100	0x3fdfffffffc12f9d	0.49999999977148396
101	0x3feffffff7ca1af4	0.9999999847067031
102	0x3fe0000000132fc5	0.5000000001396009
103	0x3feffffffcf90969	0.9999999943614003
104	0x3fe00000002564ee	0.500000000272079
105	0x3ff0000000c77d8e	1.000000002902968
106	0x3fe0000000251399	0.5000000002697674
107	0x3ff0000001b81607	1.0000000064040948
108	0x3fe00000001c949a	0.5000000002079503
109	0x3ff00000017a6c26	1.0000000055067715
110	0x3fe0000000125b55	0.500000000133563
111	0x3ff0000000bc77da	1.0000000027425728
112	0x3fe000000009aadc	0.5000000000703397
113	0x3ff0000000152cda	1.0000000003081397
114	0x3fe0000000039e8f	0.5000000000263344
115	0x3fefffffff8aefb1	0.9999999991482494
116	0x3fe0000000001c44	0.5000000000008034
117	0x3fefffffff87a38c	0.9999999991242574
118	0x3fdffffffffd0bb6	0.4999999999892525
119	0x3fefffffffcd0731	0.9999999996291306
120	0x3fdffffffffc4c26	0.4999999999865302
121	0x3ff0000000082dcd	1.0000000001190188
122	0x3fdffffffffccc6e	0.4999999999883532
123	0x3ff0000000179acc	1.0000000003434932
124	0x3fdffffffffdbe3b	0.4999999999917894
125	0x3ff000000015af46	1.0000000003155534
126	0x3fdffffffffeac1b	0.4999999999951698
127	0x3ff00000000b9aca	1.0000000001688698
128	0x3fdfffffffff62a1	0.4999999999977636
129	0x3ff0000000020793	1.0000000000295344
130	0x3fdfffffffffd760	0.4999999999994227
131	0x3feffffffffa274c	0.9999999999574611
132	0x3fe0000000000a43	0.5000000000002917
133	0x3feffffffff92d9c	0.9999999999503646
134	0x3fe0000000001591	0.500000000000613
135	0x3feffffffffcbdd0	0.999999999976291
136	0x3fe00000000015be	0.500000000000618
137	0x3ff00000000048cc	1.000000000004138
138	0x3fe00000000010ec	0.500000000000481
139	0x3ff00000000140bc	1.0000000000182316
140	0x3fe0000000000af7	0.5000000000003116
141	0x3ff0000000013bfc	1.0000000000179616
142	0x3fe00000000005d7	0.500000000000166
143	0x3ff000000000b4d7	1.0000000000102796
144	0x3fe000000000023e	0.5000000000000637
145	0x3ff0000000002996	1.0000000000023639
146	0x3fe0000000000022	0.5000000000000038
147	0x3fefffffffffb7bb	0.999999999997946
148	0x3fdffffffffffe56	0.49999999999997635
149	0x3fefffffffff9e0c	0.999999999997216
150	0x3fdffffffffffdd9	0.4999999999999694
151	0x3fefffffffffcbdb	0.999999999998518
152	0x3fdffffffffffe1f	0.4999999999999733
153	0x3ff0000000000187	1.0000000000000868
154	0x3fdffffffffffeaa	0.499999999999981
155	0x3ff00000000010d4	1.0000000000009566
156	0x3fdfffffffffff36	0.4999999999999888
157	0x3ff00000000011df	1.0000000000010159
158	0x3fdfffffffffffa2	0.4999999999999948
159	0x3ff0000000000ae7	1.0000000000006197
160	0x3fdfffffffffffe8	0.49999999999999867
161	0x3ff000000000030d	1.0000000000001734
162	0x3fe0000000000006	0.5000000000000007
163	0x3feffffffffffcaf	0.9999999999999057
164	0x3fe000000000000c	0.5000000000000013
165	0x3feffffffffffa93	0.9999999999998458
166	0x3fe000000000000d	0.5000000000000014
167	0x3feffffffffffcce	0.9999999999999092
168	0x3fe000000000000a	0.5000000000000011
169	0x3fefffffffffffe3	0.9999999999999968
170	0x3fe0000000000007	0.5000000000000008
171	0x3ff00000000000e0	1.0000000000000497
172	0x3fe0000000000004	0.5000000000000004
173	0x3ff0000000000102	1.0000000000000573
174	0x3fe0000000000001	0.5000000000000001
175	0x3ff00000000000a8	1.0000000000000373
176	0x3fe0000000000001	0.5000000000000001
177	0x3ff0000000000037	1.0000000000000122
178	0x3fe0000000000001	0.5000000000000001
179	0x3fefffffffffffde	0.9999999999999962
180	0x3fe0000000000001	0.5000000000000001
181	0x3fefffffffffffb7	0.9999999999999919
182	0x3fe0000000000001	0.5000000000000001
183	0x3fefffffffffffd1	0.9999999999999948
184	0x3fe0000000000001	0.5000000000000001
185	0x3feffffffffffffd	0.9999999999999997
186	0x3fe0000000000001	0.5000000000000001
187	0x3ff000000000000d	1.0000000000000029
188	0x3fe0000000000001	0.5000000000000001
189	0x3ff000000000000f	1.0000000000000033
190	0x3fe0000000000001	0.5000000000000001
191	0x3ff000000000000a	1.0000000000000022
192	0x3fe0000000000001	0.5000000000000001
193	0x3ff0000000000005	1.000000000000001
194	0x3fe0000000000001	0.5000000000000001
195	0x3ff0000000000000	1.0
196	0x3fe0000000000001	0.5000000000000001
197	0x3fefffffffffffff	0.9999999999999999
198	0x3fe0000000000001	0.5000000000000001
199	0x3ff0000000000000	1.0
200	0x3fe0000000000001	0.5000000000000001
201	0x3ff0000000000001	1.0000000000000002
202	0x0000000000000000	0.0
203	0x0000000000000000	0.0
204	0x3fb62fc962fc9641	0.0866666666666669
205	0x3fd0a3d70a3d70a7	0.2600000000000002
206	0x3fcbf487fcb923ab	0.21840000000000023
207	0x3fe4f765fd8adabc	0.6552000000000002
208	0x3fd5cb10ab78a754	0.3405191111111112
209	0x3ff0584c809a7d7e	1.0215573333333334
210	0x3fdb92de815eb586	0.4308391822222223
211	0x3ff376613e97a3af	1.2164013333333334
212	0x3fdf253516c297ba	0.4866459581629631
213	0x3ff39b9868154a85	1.225487143111111
214	0x3fe076d8d2de8a7c	0.5145076864758518
215	0x3ff222b7bdee78f5	1.1334760112000002
216	0x3fe0c1b60c3c3c15	0.5236463774652999
217	0x3ff086e4718eb4c9	1.0329327045285928
218	0x3fe0b766ab8f0006	0.5223878241304198
219	0x3fef2f0329a3a758	0.974488812758163
220	0x3fe0897bb75f695e	0.516782625341232
221	0x3feed235e508f18b	0.9631604646051967
222	0x3fe0560e13505e10	0.5105047585702227
223	0x3fef53b1e3272caa	0.9789666592199826
224	0x3fe02bc2ddcb5b0c	0.5053419429703765
225	0x3feffa4af4d90369	0.9993033201391032
226	0x3fe00f10c522780b	0.50183905127392
227	0x3ff02deb5c88367f	1.0112107862982211
228	0x3fdffdc87fd0d115	0.4998646972847081
229	0x3ff033f93898d4fd	1.01268884762004
230	0x3fdfefe08d769588	0.49901593985335824
231	0x3ff020cbaf5a48ed	1.0080067491258504
232	0x3fdfed513dbbdf1d	0.49885970143030695
233	0x3ff009afe05855c9	1.0023649943808428
234	0x3fdff0631fc5e5da	0.4990470705302791
235	0x3feff68a54c66c8f	0.9988452583087496
236	0x3fdff545bbbd8390	0.49934523900997707
237	0x3fefef55ad53203c	0.9979656586883787
238	0x3fdff9dd7f2bbf9a	0.49962556284935433
239	0x3feff58b090f8a57	0.9987235238043678
240	0x3fdffd4afd78de9e	0.49983477357043593
241	0x3feffecbb372bcf5	0.9998529915664266
242	0x3fdfff6dece6b837	0.49996517310035266
243	0x3ff00256fcbd68b4	1.0005712387706298
244	0x3fe0004134668fb3	0.5000310920190628
245	0x3ff002e77b6ab5ca	1.000709039780633
246	0x3fe00070135ee9f8	0.5000534418425664
247	0x3ff001f32c64449f	1.000476048855752
248	0x3fe0006bb1ca378f	0.5000513527354417
249	0x3ff000a9d0db30fd	1.0001619490095088
250	0x3fe0005179eb7f6e	0.5000388509033493
251	0x3fefff9b82edffb5	0.9999520833225605
252	0x3fe0003370ea7568	0.500024529017236
253	0x3fefff1718491960	0.9998889421774884
254	0x3fe0001a7959afeb	0.5000126237987365
255	0x3fefff5fbb0ab384	0.9999235776100339

unsafe_action f8 [1, 2]
0	0x3fe0000000000000	0.5
1	0x3ff8000000000000	1.5

safe_set_A f8 [1, 9, 2]
0	0x3ff0000000000000	1.0
1	0x0000000000000000	0.0
2	0x0000000000000000	0.0
3	0x3ff0000000000000	1.0
4	0xbff0000000000000	-1.0
5	0x8000000000000000	-0.0
6	0x8000000000000000	-0.0
7	0xbff0000000000000	-1.0
8	0xbff0000000000000	-1.0
9	0x8000000000000000	-0.0
10	0x8000000000000000	-0.0
11	0xbff0000000000000	-1.0
12	0x3ff0000000000000	1.0
13	0x0000000000000000	0.0
14	0x0000000000000000	0.0
15	0x3ff0000000000000	1.0
16	0x0000000000000000	0.0
17	0x0000000000000000	0.0

safe_set_b f8 [1, 9]
0	0x402d19f63d415cc9	14.550706781605543
1	0x40293b4b28e04812	12.615807797792545
2	0x3ff7304e15f519b8	1.4492932183944571
3	0x400b12d35c7edfb8	3.384192202207455
4	0x3ff0000000000000	1.0
5	0x3ff0000000000000	1.0
6	0x3ff0000000000000	1.0
7	0x3ff0000000000000	1.0
8	0x7ff0000000000000	inf

trajectory f8 [303, 1, 2]
0	0x0000000000000000	0.0
1	0x0000000000000000	0.0
2	0x3fb62fc962fc9641	0.0866666666666669
3	0x3fd0a3d70a3d70a7	0.2600000000000002
4	0x3fcbf487fcb923ab	0.21840000000000023
5	0x3fe4f765fd8adabc	0.6552000000000002
6	0x3fd5cb10ab78a754	0.3405191111111112
7	0x3ff0584c809a7d7e	1.0215573333333334
8	0x3fdb92de815eb586	0.4308391822222223
9	0x3ff376613e97a3af	1.2164013333333334
10	0x3fdf253516c297ba	0.4866459581629631
11	0x3ff39b9868154a85	1.225487143111111
12	0x3fe076d8d2de8a7c	0.5145076864758518
13	0x3ff222b7bdee78f5	1.1334760112000002
14	0x3fe0c1b60c3c3c15	0.5236463774652999
15	0x3ff086e4718eb4c9	1.0329327045285928
16	0x3fe0b766ab8f0006	0.5223878241304198
17	0x3fef2f0329a3a758	0.974488812758163
18	0x3fe0897bb75f695e	0.516782625341232
19	0x3feed235e508f18b	0.9631604646051967
20	0x3fe0560e13505e10	0.5105047585702227
21	0x3fef53b1e3272caa	0.9789666592199826
22	0x3fe02bc2ddcb5b0c	0.5053419429703765
23	0x3feffa4af4d90369	0.9993033201391032
24	0x3fe00f10c522780b	0.50183905127392
25	0x3ff02deb5c88367f	1.0112107862982211
26	0x3fdffdc87fd0d115	0.4998646972847081
27	0x3ff033f93898d4fd	1.01268884762004
28	0x3fdfefe08d769588	0.49901593985335824
29	0x3ff020cbaf5a48ed	1.0080067491258504
30	0x3fdfed513dbbdf1d	0.49885970143030695
31	0x3ff009afe05855c9	1.0023649943808428
32	0x3fdff0631fc5e5da	0.4990470705302791
33	0x3feff68a54c66c8f	0.9988452583087496
34	0x3fdff545bbbd8390	0.49934523900997707
35	0x3fefef55ad53203c	0.9979656586883787
36	0x3fdff9dd7f2bbf9a	0.49962556284935433
37	0x3feff58b090f8a57	0.9987235238043678
38	0x3fdffd4afd78de9e	0.49983477357043593
39	0x3feffecbb372bcf5	0.9998529915664266
40	0x3fdfff6dece6b837	0.49996517310035266
41	0x3ff00256fcbd68b4	1.0005712387706298
42	0x3fe0004134668fb3	0.5000310920190628
43	0x3ff002e77b6ab5ca	1.000709039780633
44	0x3fe00070135ee9f8	0.5000534418425664
45	0x3ff001f32c64449f	1.000476048855752
46	0x3fe0006bb1ca378f	0.5000513527354417
47	0x3ff000a9d0db30fd	1.0001619490095088
48	0x3fe0005179eb7f6e	0.5000388509033493
49	0x3fefff9b82edffb5	0.9999520833225605
50	0x3fe0003370ea7568	0.500024529017236
51	0x3fefff1718491960	0.9998889421774884
52	0x3fe0001a7959afeb	0.5000126237987365
53	0x3fefff5fbb0ab384	0.9999235776100339
54	0x3fe0000963cf6ab3	0.5000044774454494
55	0x3fefffe2005fb914	0.9999856955817301
56	0x3fdfffff54efd8fa	0.4999998406850775
57	0x3ff0001de793e91e	1.0000285192496174
58	0x3fdffff6d24f33ed	0.4999978116800879
59	0x3ff000293eaf6bd9	1.0000393341676868
60	0x3fdffff5198ebb92	0.4999974011979528
61	0x3ff0001d6fd9cbef	1.0000280732317568
62	0x3fdffff6ca0e468a	0.4999978039933032
63	0x3ff0000b3fed8672	1.0000107285672155
64	0x3fdffff99dfc2d89	0.49999847820500826
65	0x3feffffc7ee3bbba	0.9999983290016339
66	0x3fdffffc5092acf6	0.4999991213650924
67	0x3feffff371e66e73	0.9999940132724546
68	0x3fdffffe58b347f3	0.49999960577144903
69	0x3feffff6856b0665	0.999995480138932
70	0x3fdfffff9fb6c20e	0.4999999103265801
71	0x3feffffd9c501b3a	0.9999988606440191
72	0x3fe0000023852c53	0.5000000661615424
73	0x3ff000017454ff28	1.0000013870448559
74	0x3fe0000040c63c5d	0.5000001206516448
75	0x3ff000024552815c	1.0000021655942737
76	0x3fe000003f34d5a6	0.5000001177310665
77	0x3ff00001b9027303	1.0000016428886631
78	0x3fe000003043feee	0.5000000899017019
79	0x3ff00000ba213e4f	1.0000006933877505
80	0x3fe000001ebc732d	0.500000057250508
81	0x3fefffffee4590da	0.9999999669785453
82	0x3fe000001000f8db	0.5000000298093953
83	0x3fefffff553239db	0.9999996818531217
84	0x3fe0000005d63912	0.5000000108719027
85	0x3fefffff72180304	0.9999997356790975
86	0x3fdffffffffcde12	0.4999999999886039
87	0x3fefffffd3b8bce7	0.9999999175251134
88	0x3fdffffffac952e3	0.4999999951444762
89	0x3ff00000117a7b4b	1.0000000651122771
90	0x3fdffffff9a5170b	0.49999999408133594
91	0x3ff000001fbfd2f7	1.000000118275407
92	0x3fdffffffa918bae	0.49999999494155645
93	0x3ff00000199f2ba1	1.000000095448492
94	0x3fdffffffc3429b3	0.4999999964644772
95	0x3ff000000bcc7bda	1.0000000439538241
96	0x3fdffffffdc9930e	0.4999999979393558
97	0x3ff0000000777f21	1.0000000017389044
98	0x3fdffffffefdc096	0.4999999990605003
99	0x3feffffff712b01a	0.999999983372166
100	0x3fdfffffffc12f9d	0.49999999977148396
101	0x3feffffff7ca1af4	0.9999999847067031
102	0x3fe0000000132fc5	0.5000000001396009
103	0x3feffffffcf90969	0.9999999943614003
104	0x3fe00000002564ee	0.500000000272079
105	0x3ff0000000c77d8e	1.000000002902968
106	0x3fe0000000251399	0.5000000002697674
107	0x3ff0000001b81607	1.0000000064040948
108	0x3fe00000001c949a	0.5000000002079503
109	0x3ff00000017a6c26	1.0000000055067715
110	0x3fe0000000125b55	0.500000000133563
111	0x3ff0000000bc77da	1.0000000027425728
112	0x3fe000000009aadc	0.5000000000703397
113	0x3ff0000000152cda	1.0000000003081397
114	0x3fe0000000039e8f	0.5000000000263344
115	0x3fefffffff8aefb1	0.9999999991482494
116	0x3fe0000000001c44	0.5000000000008034
117	0x3fefffffff87a38c	0.9999999991242574
118	0x3fdffffffffd0bb6	0.4999999999892525
119	0x3fefffffffcd0731	0.9999999996291306
120	0x3fdffffffffc4c26	0.4999999999865302
121	0x3ff0000000082dcd	1.0000000001190188
122	0x3fdffffffffccc6e	0.4999999999883532
123	0x3ff0000000179acc	1.0000000003434932
124	0x3fdffffffffdbe3b	0.4999999999917894
125	0x3ff000000015af46	1.0000000003155534
126	0x3fdffffffffeac1b	0.4999999999951698
127	0x3ff00000000b9aca	1.0000000001688698
128	0x3fdfffffffff62a1	0.4999999999977636
129	0x3ff0000000020793	1.0000000000295344
130	0x3fdfffffffffd760	0.4999999999994227
131	0x3feffffffffa274c	0.9999999999574611
132	0x3fe0000000000a43	0.5000000000002917
133	0x3feffffffff92d9c	0.9999999999503646
134	0x3fe0000000001591	0.500000000000613
135	0x3feffffffffcbdd0	0.999999999976291
136	0x3fe00000000015be	0.500000000000618
137	0x3ff00000000048cc	1.000000000004138
138	0x3fe00000000010ec	0.500000000000481
139	0x3ff00000000140bc	1.0000000000182316
140	0x3fe0000000000af7	0.5000000000003116
141	0x3ff0000000013bfc	1.0000000000179616
142	0x3fe00000000005d7	0.500000000000166
143	0x3ff000000000b4d7	1.0000000000102796
144	0x3fe000000000023e	0.5000000000000637
145	0x3ff0000000002996	1.0000000000023639
146	0x3fe0000000000022	0.5000000000000038
147	0x3fefffffffffb7bb	0.999999999997946
148	0x3fdffffffffffe56	0.49999999999997635
149	0x3fefffffffff9e0c	0.999999999997216
150	0x3fdffffffffffdd9	0.4999999999999694
151	0x3fefffffffffcbdb	0.999999999998518
152	0x3fdffffffffffe1f	0.4999999999999733
153	0x3ff0000000000187	1.0000000000000868
154	0x3fdffffffffffeaa	0.499999999999981
155	0x3ff00000000010d4	1.0000000000009566
156	0x3fdfffffffffff36	0.4999999999999888
157	0x3ff00000000011df	1.0000000000010159
158	0x3fdfffffffffffa2	0.4999999999999948
159	0x3ff0000000000ae7	1.0000000000006197
160	0x3fdfffffffffffe8	0.49999999999999867
161	0x3ff000000000030d	1.0000000000001734
162	0x3fe0000000000006	0.5000000000000007
163	0x3feffffffffffcaf	0.9999999999999057
164	0x3fe000000000000c	0.5000000000000013
165	0x3feffffffffffa93	0.9999999999998458
166	0x3fe000000000000d	0.5000000000000014
167	0x3feffffffffffcce	0.9999999999999092
168	0x3fe000000000000a	0.5000000000000011
169	0x3fefffffffffffe3	0.9999999999999968
170	0x3fe0000000000007	0.5000000000000008
171	0x3ff00000000000e0	1.0000000000000497
172	0x3fe0000000000004	0.5000000000000004
173	0x3ff0000000000102	1.0000000000000573
174	0x3fe0000000000001	0.5000000000000001
175	0x3ff00000000000a8	1.0000000000000373
176	0x3fe0000000000001	0.5000000000000001
177	0x3ff0000000000037	1.0000000000000122
178	0x3fe0000000000001	0.5000000000000001
179	0x3fefffffffffffde	0.9999999999999962
180	0x3fe0000000000001	0.5000000000000001
181	0x3fefffffffffffb7	0.9999999999999919
182	0x3fe0000000000001	0.5000000000000001
183	0x3fefffffffffffd1	0.9999999999999948
184	0x3fe0000000000001	0.5000000000000001
185	0x3feffffffffffffd	0.9999999999999997
186	0x3fe0000000000001	0.5000000000000001
187	0x3ff000000000000d	1.0000000000000029
188	0x3fe0000000000001	0.5000000000000001
189	0x3ff000000000000f	1.0000000000000033
190	0x3fe0000000000001	0.5000000000000001
191	0x3ff000000000000a	1.0000000000000022
192	0x3fe0000000000001	0.5000000000000001
193	0x3ff0000000000005	1.000000000000001
194	0x3fe0000000000001	0.5000000000000001
195	0x3ff0000000000000	1.0
196	0x3fe0000000000001	0.5000000000000001
197	0x3fefffffffffffff	0.9999999999999999
198	0x3fe0000000000001	0.5000000000000001
199	0x3ff0000000000000	1.0
200	0x3fe0000000000001	0.5000000000000001
201	0x3ff0000000000001	1.0000000000000002
202	0x0000000000000000	0.0
203	0x0000000000000000	0.0
204	0x3fb62fc962fc9641	0.0866666666666669
205	0x3fd0a3d70a3d70a7	0.2600000000000002
206	0x3fcbf487fcb923ab	0.21840000000000023
207	0x3fe4f765fd8adabc	0.6552000000000002
208	0x3fd5cb10ab78a754	0.3405191111111112
209	0x3ff0584c809a7d7e	1.0215573333333334
210	0x3fdb92de815eb586	0.4308391822222223
211	0x3ff376613e97a3af	1.2164013333333334
212	0x3fdf253516c297ba	0.4866459581629631
213	0x3ff39b9868154a85	1.225487143111111
214	0x3fe076d8d2de8a7c	0.5145076864758518
215	0x3ff222b7bdee78f5	1.1334760112000002
216	0x3fe0c1b60c3c3c15	0.5236463774652999
217	0x3ff086e4718eb4c9	1.0329327045285928
218	0x3fe0b766ab8f0006	0.5223878241304198
219	0x3fef2f0329a3a758	0.974488812758163
220	0x3fe0897bb75f695e	0.516782625341232
221	0x3feed235e508f18b	0.9631604646051967
222	0x3fe0560e13505e10	0.5105047585702227
223	0x3fef53b1e3272caa	0.9789666592199826
224	0x3fe02bc2ddcb5b0c	0.5053419429703765
225	0x3feffa4af4d90369	0.9993033201391032
226	0x3fe00f10c522780b	0.50183905127392
227	0x3ff02deb5c88367f	1.0112107862982211
228	0x3fdffdc87fd0d115	0.4998646972847081
229	0x3ff033f93898d4fd	1.01268884762004
230	0x3fdfefe08d769588	0.49901593985335824
231	0x3ff020cbaf5a48ed	1.0080067491258504
232	0x3fdfed513dbbdf1d	0.49885970143030695
233	0x3ff009afe05855c9	1.0023649943808428
234	0x3fdff0631fc5e5da	0.4990470705302791
235	0x3feff68a54c66c8f	0.9988452583087496
236	0x3fdff545bbbd8390	0.49934523900997707
237	0x3fefef55ad53203c	0.9979656586883787
238	0x3fdff9dd7f2bbf9a	0.49962556284935433
239	0x3feff58b090f8a57	0.9987235238043678
240	0x3fdffd4afd78de9e	0.49983477357043593
241	0x3feffecbb372bcf5	0.9998529915664266
242	0x3fdfff6dece6b837	0.49996517310035266
243	0x3ff00256fcbd68b4	1.0005712387706298
244	0x3fe0004134668fb3	0.5000310920190628
245	0x3ff002e77b6ab5ca	1.000709039780633
246	0x3fe00070135ee9f8	0.5000534418425664
247	0x3ff001f32c64449f	1.000476048855752
248	0x3fe0006bb1ca378f	0.5000513527354417
249	0x3ff000a9d0db30fd	1.0001619490095088
250	0x3fe0005179eb7f6e	0.5000388509033493
251	0x3fefff9b82edffb5	0.9999520833225605
252	0x3fe0003370ea7568	0.500024529017236
253	0x3fefff1718491960	0.9998889421774884
254	0x3fe0001a7959afeb	0.5000126237987365
255	0x3fefff5fbb0ab384	0.9999235776100339

unsafe_action f8 [1, 2]
0	0x3fe0000000000000	0.5
1	0x3ff8000000000000	1.5

safe_set_A f8 [1, 9, 2]
0	0x3ff0000000000000	1.0
1	0x0000000000000000	0.0
2	0x0000000000000000	0.0
3	0x3ff0000000000000	1.0
4	0xbff0000000000000	-1.0
5	0x8000000000000000	-0.0
6	0x8000000000000000	-0.0
7	0xbff0000000000000	-1.0
8	0xbff0000000000000	-1.0
9	0x8000000000000000	-0.0
10	0x8000000000000000	-0.0
11	0xbff0000000000000	-1.0
12	0x3ff0000000000000	1.0
13	0x0000000000000000	0.0
14	0x0000000000000000	0.0
15	0x3ff0000000000000	1.0
16	0x0000000000000000	0.0
17	0x0000000000000000	0.0

safe_set_b f8 [1, 9]
0	0x402cfe6023d7412c	14.496827240015214
1	0x40290b2545efa6b4	12.52176874685697
2	0x3ff80cfee145f69c	1.5031727599847846
3	0x400bd36ae8416530	3.4782312531430293
4	0x3ff0000000000000	1.0
5	0x3ff0000000000000	1.0
6	0x3ff0000000000000	1.0
7	0x3ff0000000000000	1.0
8	0x7ff0000000000000	inf

trajectory f8 [404, 1, 2]
0	0x0000000000000000	0.0
1	0x0000000000000000	0.0
2	0x3fb62fc962fc9641	0.0866666666666669
3	0x3fd0a3d70a3d70a7	0.2600000000000002
4	0x3fcbf487fcb923ab	0.21840000000000023
5	0x3fe4f765fd8adabc	0.6552000000000002
6	0x3fd5cb10ab78a754	0.3405191111111112
7	0x3ff0584c809a7d7e	1.0215573333333334
8	0x3fdb92de815eb586	0.4308391822222223
9	0x3ff376613e97a3af	1.2164013333333334
10	0x3fdf253516c297ba	0.4866459581629631
11	0x3ff39b9868154a85	1.225487143111111
12	0x3fe076d8d2de8a7c	0.5145076864758518
13	0x3ff222b7bdee78f5	1.1334760112000002
14	0x3fe0c1b60c3c3c15	0.5236463774652999
15	0x3ff086e4718eb4c9	1.0329327045285928
16	0x3fe0b766ab8f0006	0.5223878241304198
17	0x3fef2f0329a3a758	0.974488812758163
18	0x3fe0897bb75f695e	0.516782625341232
19	0x3feed235e508f18b	0.9631604646051967
20	0x3fe0560e13505e10	0.5105047585702227
21	0x3fef53b1e3272caa	0.9789666592199826
22	0x3fe02bc2ddcb5b0c	0.5053419429703765
23	0x3feffa4af4d90369	0.9993033201391032
24	0x3fe00f10c522780b	0.50183905127392
25	0x3ff02deb5c88367f	1.0112107862982211
26	0x3fdffdc87fd0d115	0.4998646972847081
27	0x3ff033f93898d4fd	1.01268884762004
28	0x3fdfefe08d769588	0.49901593985335824
29	0x3ff020cbaf5a48ed	1.0080067491258504
30	0x3fdfed513dbbdf1d	0.49885970143030695
31	0x3ff009afe05855c9	1.0023649943808428
32	0x3fdff0631fc5e5da	0.4990470705302791
33	0x3feff68a54c66c8f	0.9988452583087496
34	0x3fdff545bbbd8390	0.49934523900997707
35	0x3fefef55ad53203c	0.9979656586883787
36	0x3fdff9dd7f2bbf9a	0.49962556284935433
37	0x3feff58b090f8a57	0.9987235238043678
38	0x3fdffd4afd78de9e	0.49983477357043593
39	0x3feffecbb372bcf5	0.9998529915664266
40	0x3fdfff6dece6b837	0.49996517310035266
41	0x3ff00256fcbd68b4	1.0005712387706298
42	0x3fe0004134668fb3	0.5000310920190628
43	0x3ff002e77b6ab5ca	1.000709039780633
44	0x3fe00070135ee9f8	0.5000534418425664
45	0x3ff001f32c64449f	1.000476048855752
46	0x3fe0006bb1ca378f	0.5000513527354417
47	0x3ff000a9d0db30fd	1.0001619490095088
48	0x3fe0005179eb7f6e	0.5000388509033493
49	0x3fefff9b82edffb5	0.9999520833225605
50	0x3fe0003370ea7568	0.500024529017236
51	0x3fefff1718491960	0.9998889421774884
52	0x3fe0001a7959afeb	0.5000126237987365
53	0x3fefff5fbb0ab384	0.9999235776100339
54	0x3fe0000963cf6ab3	0.5000044774454494
55	0x3fefffe2005fb914	0.9999856955817301
56	0x3fdfffff54efd8fa	0.4999998406850775
57	0x3ff0001de793e91e	1.0000285192496174
58	0x3fdffff6d24f33ed	0.4999978116800879
59	0x3ff000293eaf6bd9	1.0000393341676868
60	0x3fdffff5198ebb92	0.4999974011979528
61	0x3ff0001d6fd9cbef	1.0000280732317568
62	0x3fdffff6ca0e468a	0.4999978039933032
63	0x3ff0000b3fed8672	1.0000107285672155
64	0x3fdffff99dfc2d89	0.49999847820500826
65	0x3feffffc7ee3bbba	0.9999983290016339
66	0x3fdffffc5092acf6	0.4999991213650924
67	0x3feffff371e66e73	0.9999940132724546
68	0x3fdffffe58b347f3	0.49999960577144903
69	0x3feffff6856b0665	0.999995480138932
70	0x3fdfffff9fb6c20e	0.4999999103265801
71	0x3feffffd9c501b3a	0.9999988606440191
72	0x3fe0000023852c53	0.5000000661615424
73	0x3ff000017454ff28	1.0000013870448559
74	0x3fe0000040c63c5d	0.5000001206516448
75	0x3ff000024552815c	1.0000021655942737
76	0x3fe000003f34d5a6	0.5000001177310665
77	0x3ff00001b9027303	1.0000016428886631
78	0x3fe000003043feee	0.5000000899017019
79	0x3ff00000ba213e4f	1.0000006933877505
80	0x3fe000001ebc732d	0.500000057250508
81	0x3fefffffee4590da	0.9999999669785453
82	0x3fe000001000f8db	0.5000000298093953
83	0x3fefffff553239db	0.9999996818531217
84	0x3fe0000005d63912	0.5000000108719027
85	0x3fefffff72180304	0.9999997356790975
86	0x3fdffffffffcde12	0.4999999999886039
87	0x3fefffffd3b8bce7	0.9999999175251134
88	0x3fdffffffac952e3	0.4999999951444762
89	0x3ff00000117a7b4b	1.0000000651122771
90	0x3fdffffff9a5170b	0.49999999408133594
91	0x3ff000001fbfd2f7	1.000000118275407
92	0x3fdffffffa918bae	0.49999999494155645
93	0x3ff00000199f2ba1	1.000000095448492
94	0x3fdffffffc3429b3	0.4999999964644772
95	0x3ff000000bcc7bda	1.0000000439538241
96	0x3fdffffffdc9930e	0.4999999979393558
97	0x3ff0000000777f21	1.0000000017389044
98	0x3fdffffffefdc096	0.4999999990605003
99	0x3feffffff712b01a	0.999999983372166
100	0x3fdfffffffc12f9d	0.49999999977148396
101	0x3feffffff7ca1af4	0.9999999847067031
102	0x3fe0000000132fc5	0.5000000001396009
103	0x3feffffffcf90969	0.9999999943614003
104	0x3fe00000002564ee	0.500000000272079
105	0x3ff0000000c77d8e	1.000000002902968
106	0x3fe0000000251399	0.5000000002697674
107	0x3ff0000001b81607	1.0000000064040948
108	0x3fe00000001c949a	0.5000000002079503
109	0x3ff00000017a6c26	1.0000000055067715
110	0x3fe0000000125b55	0.500000000133563
111	0x3ff0000000bc77da	1.0000000027425728
112	0x3fe000000009aadc	0.5000000000703397
113	0x3ff0000000152cda	1.0000000003081397
114	0x3fe0000000039e8f	0.5000000000263344
115	0x3fefffffff8aefb1	0.9999999991482494
116	0x3fe0000000001c44	0.5000000000008034
117	0x3fefffffff87a38c	0.9999999991242574
118	0x3fdffffffffd0bb6	0.4999999999892525
119	0x3fefffffffcd0731	0.9999999996291306
120	0x3fdffffffffc4c26	0.4999999999865302
121	0x3ff0000000082dcd	1.0000000001190188
122	0x3fdffffffffccc6e	0.4999999999883532
123	0x3ff0000000179acc	1.0000000003434932
124	0x3fdffffffffdbe3b	0.4999999999917894
125	0x3ff000000015af46	1.0000000003155534
126	0x3fdffffffffeac1b	0.4999999999951698
127	0x3ff00000000b9aca	1.0000000001688698
128	0x3fdfffffffff62a1	0.4999999999977636
129	0x3ff0000000020793	1.0000000000295344
130	0x3fdfffffffffd760	0.4999999999994227
131	0x3feffffffffa274c	0.9999999999574611
132	0x3fe0000000000a43	0.5000000000002917
133	0x3feffffffff92d9c	0.9999999999503646
134	0x3fe0000000001591	0.500000000000613
135	0x3feffffffffcbdd0	0.999999999976291
136	0x3fe00000000015be	0.500000000000618
137	0x3ff00000000048cc	1.000000000004138
138	0x3fe00000000010ec	0.500000000000481
139	0x3ff00000000140bc	1.0000000000182316
140	0x3fe0000000000af7	0.5000000000003116
141	0x3ff0000000013bfc	1.0000000000179616
142	0x3fe00000000005d7	0.500000000000166
143	0x3ff000000000b4d7	1.0000000000102796
144	0x3fe000000000023e	0.5000000000000637
145	0x3ff0000000002996	1.0000000000023639
146	0x3fe0000000000022	0.5000000000000038
147	0x3fefffffffffb7bb	0.999999999997946
148	0x3fdffffffffffe56	0.49999999999997635
149	0x3fefffffffff9e0c	0.999999999997216
150	0x3fdffffffffffdd9	0.4999999999999694
151	0x3fefffffffffcbdb	0.999999999998518
152	0x3fdffffffffffe1f	0.4999999999999733
153	0x3ff0000000000187	1.0000000000000868
154	0x3fdffffffffffeaa	0.499999999999981
155	0x3ff00000000010d4	1.0000000000009566
156	0x3fdfffffffffff36	0.4999999999999888
157	0x3ff00000000011df	1.0000000000010159
158	0x3fdfffffffffffa2	0.4999999999999948
159	0x3ff0000000000ae7	1.0000000000006197
160	0x3fdfffffffffffe8	0.49999999999999867
161	0x3ff000000000030d	1.0000000000001734
162	0x3fe0000000000006	0.5000000000000007
163	0x3feffffffffffcaf	0.9999999999999057
164	0x3fe000000000000c	0.5000000000000013
165	0x3feffffffffffa93	0.9999999999998458
166	0x3fe000000000000d	0.5000000000000014
167	0x3feffffffffffcce	0.9999999999999092
168	0x3fe000000000000a	0.5000000000000011
169	0x3fefffffffffffe3	0.9999999999999968
170	0x3fe0000000000007	0.5000000000000008
171	0x3ff00000000000e0	1.0000000000000497
172	0x3fe0000000000004	0.5000000000000004
173	0x3ff0000000000102	1.0000000000000573
174	0x3fe0000000000001	0.5000000000000001
175	0x3ff00000000000a8	1.0000000000000373
176	0x3fe0000000000001	0.5000000000000001
177	0x3ff0000000000037	1.0000000000000122
178	0x3fe0000000000001	0.5000000000000001
179	0x3fefffffffffffde	0.9999999999999962
180	0x3fe0000000000001	0.5000000000000001
181	0x3fefffffffffffb7	0.9999999999999919
182	0x3fe0000000000001	0.5000000000000001
183	0x3fefffffffffffd1	0.9999999999999948
184	0x3fe0000000000001	0.5000000000000001
185	0x3feffffffffffffd	0.9999999999999997
186	0x3fe0000000000001	0.5000000000000001
187	0x3ff000000000000d	1.0000000000000029
188	0x3fe0000000000001	0.5000000000000001
189	0x3ff000000000000f	1.0000000000000033
190	0x3fe0000000000001	0.5000000000000001
191	0x3ff000000000000a	1.0000000000000022
192	0x3fe0000000000001	0.5000000000000001
193	0x3ff0000000000005	1.000000000000001
194	0x3fe0000000000001	0.5000000000000001
195	0x3ff0000000000000	1.0
196	0x3fe0000000000001	0.5000000000000001
197	0x3fefffffffffffff	0.9999999999999999
198	0x3fe0000000000001	0.5000000000000001
199	0x3ff0000000000000	1.0
200	0x3fe0000000000001	0.5000000000000001
201	0x3ff0000000000001	1.0000000000000002
202	0x0000000000000000	0.0
203	0x0000000000000000	0.0
204	0x3fb62fc962fc9641	0.0866666666666669
205	0x3fd0a3d70a3d70a7	0.2600000000000002
206	0x3fcbf487fcb923ab	0.21840000000000023
207	0x3fe4f765fd8adabc	0.6552000000000002
208	0x3fd5cb10ab78a754	0.3405191111111112
209	0x3ff0584c809a7d7e	1.0215573333333334
210	0x3fdb92de815eb586	0.4308391822222223
211	0x3ff376613e97a3af	1.2164013333333334
212	0x3fdf253516c297ba	0.4866459581629631
213	0x3ff39b9868154a85	1.225487143111111
214	0x3fe076d8d2de8a7c	0.5145076864758518
215	0x3ff222b7bdee78f5	1.1334760112000002
216	0x3fe0c1b60c3c3c15	0.5236463774652999
217	0x3ff086e4718eb4c9	1.0329327045285928
218	0x3fe0b766ab8f0006	0.5223878241304198
219	0x3fef2f0329a3a758	0.974488812758163
220	0x3fe0897bb75f695e	0.516782625341232
221	0x3feed235e508f18b	0.9631604646051967
222	0x3fe0560e13505e10	0.5105047585702227
223	0x3fef53b1e3272caa	0.9789666592199826
224	0x3fe02bc2ddcb5b0c	0.5053419429703765
225	0x3feffa4af4d90369	0.9993033201391032
226	0x3fe00f10c522780b	0.50183905127392
227	0x3ff02deb5c88367f	1.0112107862982211
228	0x3fdffdc87fd0d115	0.4998646972847081
229	0x3ff033f93898d4fd	1.01268884762004
230	0x3fdfefe08d769588	0.49901593985335824
231	0x3ff020cbaf5a48ed	1.0080067491258504
232	0x3fdfed513dbbdf1d	0.49885970143030695
233	0x3ff009afe05855c9	1.0023649943808428
234	0x3fdff0631fc5e5da	0.4990470705302791
235	0x3feff68a54c66c8f	0.9988452583087496
236	0x3fdff545bbbd8390	0.49934523900997707
237	0x3fefef55ad53203c	0.9979656586883787
238	0x3fdff9dd7f2bbf9a	0.49962556284935433
239	0x3feff58b090f8a57	0.9987235238043678
240	0x3fdffd4afd78de9e	0.49983477357043593
241	0x3feffecbb372bcf5	0.9998529915664266
242	0x3fdfff6dece6b837	0.49996517310035266
243	0x3ff00256fcbd68b4	1.0005712387706298
244	0x3fe0004134668fb3	0.5000310920190628
245	0x3ff002e77b6ab5ca	1.000709039780633
246	0x3fe00070135ee9f8	0.5000534418425664
247	0x3ff001f32c64449f	1.000476048855752
248	0x3fe0006bb1ca378f	0.5000513527354417
249	0x3ff000a9d0db30fd	1.0001619490095088
250	0x3fe0005179eb7f6e	0.5000388509033493
251	0x3fefff9b82edffb5	0.9999520833225605
252	0x3fe0003370ea7568	0.500024529017236
253	0x3fefff1718491960	0.9998889421774884
254	0x3fe0001a7959afeb	0.5000126237987365
255	0x3fefff5fbb0ab384	0.9999235776100339

unsafe_action f8 [1, 2]
0	0x3fe0000000000000	0.5
1	0x3ff8000000000000	1.5

safe_set_A f8 [1, 9, 2]
0	0x3ff0000000000000	1.0
1	0x0000000000000000	0.0
2	0x0000000000000000	0.0
3	0x3ff0000000000000	1.0
4	0xbff0000000000000	-1.0
5	0x8000000000000000	-0.0
6	0x8000000000000000	-0.0
7	0xbff0000000000000	-1.0
8	0xbff0000000000000	-1.0
9	0x8000000000000000	-0.0
10	0x8000000000000000	-0.0
11	0xbff0000000000000	-1.0
12	0x3ff0000000000000	1.0
13	0x0000000000000000	0.0
14	0x0000000000000000	0.0
15	0x3ff0000000000000	1.0
16	0x0000000000000000	0.0
17	0x0000000000000000	0.0

safe_set_b f8 [1, 9]
0	0x402ce3912b909d84	14.44446693554233
1	0x4028bf56539fb940	12.373705495116724
2	0x3ff8e376a37b13dc	1.555533064457669
3	0x400d02a6b1811afe	3.6262945048832753
4	0x3ff0000000000000	1.0
5	0x3ff0000000000000	1.0
6	0x3ff0000000000000	1.0
7	0x3ff0000000000000	1.0
8	0x7ff0000000000000	inf
